03-logistic-regression-v-1/mnist-logistic.pth (torch_old, 31970 bytes, 2 tensors)

linear.weight f4 [10, 784]
000000 fe 14 d5 bc 78 16 44 3c 56 85 d0 3c f4 40 76 bc
       -0.026010986 0.011968248 0.025454205 -0.0150301345
000010 5e ff ab bc 64 da 1b 3c 05 4e fc bc 0e e2 a5 bc
       -0.020995792 0.009512518 -0.030798921 -0.020249393
000020 15 f0 e1 bc 18 4b 73 bc 8e a2 06 bd 26 bf 34 bc
       -0.0275803 -0.014849447 -0.032869868 -0.011031901
000030 73 ce 82 3b 6a 38 c9 bc 0e 55 04 bb 0c fc 1f bc
       0.003991896 -0.024563033 -0.0020192298 -0.0097646825
000040 c8 3b bb 3c 9a 9a 90 3c d8 ca 18 bc 70 a0 05 3c
       0.022855654 0.017651845 -0.0093257055 0.008155927
000050 8f 7f 00 bd bc a0 97 bc 80 5b 26 bc 9c ff 8f bc
       -0.03137165 -0.018509261 -0.010153651 -0.017577939
000060 66 8e a8 3c 78 f0 5b 3c 90 37 0c bd 85 6b 10 3d
       0.020575713 0.013424031 -0.034232676 0.03525879
000070 9a 59 bb 3c 0e 4d cd 3c 46 8c fd 3c f8 b4 99 3c
       0.022869874 0.025061157 0.030950677 0.01876305
000080 96 ef cc 3a dd ca da bc da c8 d7 3b 5d 5c d8 bc
       0.0015635367 -0.02670806 0.0065852227 -0.02641123
000090 c7 d0 8e bb 50 05 b5 bb 76 27 4c 3c 2b 4d 00 3d
       -0.0043583843 -0.005524315 0.01246058 0.031323593
0000a0 5b c8 84 bc 43 52 d4 bc 2d 08 95 3c 3c f5 71 3c
       -0.016208818 -0.025918132 0.018192375 0.014767941
0000b0 81 31 ae 3c bb 30 92 bc 51 02 08 bd 5e 87 54 3c
       0.02126384 -0.017845502 -0.033205334 0.012971727
0000c0 44 7b 08 bd 58 a3 98 bc 17 c6 1f bc 70 35 09 3d
       -0.03332068 -0.018632576 -0.009751818 0.033498228
0000d0 90 72 62 3b 90 e5 e2 3b a8 98 d4 3c ec 67 c7 bc
       0.0034553148 0.0069243386 0.025951698 -0.024341546
0000e0 54 98 99 bb 70 12 90 3c 05 22 da 3c 80 a9 f9 3c
       -0.0046873484 0.017586917 0.02662755 0.030476332
0000f0 c8 e8 b9 bc f3 87 0b bd fd 15 07 3d 35 e9 85 3c
       -0.022694007 -0.0340652 0.032979954 0.016346553
000100 12 b4 c4 bc 08 62 88 bc e6 b9 a4 3b 16 23 e8 3b
       -0.024011645 -0.016648307 0.0050270436 0.0070842607
000110 99 10 b8 bc 26 b8 99 bc 65 17 01 bd cd 93 85 3c
       -0.022468852 -0.018764567 -0.03151645 0.016305828
000120 72 11 90 38 72 97 33 bc 00 7f 0e bd de e3 b0 bc
       6.8697045e-05 -0.0109614 -0.034789085 -0.02159303
000130 1e 5e e0 3c 41 19 50 bb 52 8d d2 bb de 5e 1c 3c
       0.027388629 -0.0031753334 -0.006425538 0.0095441025
000140 b8 c7 09 3d c3 a7 f3 3c 32 5e 93 3c 88 ce 8c bb
       0.033637732 0.029743081 0.017989252 -0.0042970814
000150 bc 7c 31 3c d8 bb 11 bc b8 3c bb bc a0 54 11 bd
       0.010832962 -0.008894883 -0.022856101 -0.035481095
000160 cb 8c 23 bb e0 63 ff 3b 9b 4f 68 bb 22 8b 4e 3c
       -0.0024955745 0.0077938884 -0.003544784 0.012606414
000170 5c e0 63 bc 39 4a ce 3c 26 09 95 bb 3a a4 5b 3c
       -0.013908472 0.025181876 -0.0045482097 0.013405854
000180 b0 07 ca 3c 14 0c c4 bc 32 c3 2d bb 92 27 0f bd
       0.024661869 -0.02393154 -0.002651405 -0.034949847
000190 91 94 46 bd c1 30 98 3b fe 67 09 bd e2 b1 a0 3c
       -0.048481528 0.004644484 -0.03354644 0.019616071
0001a0 6b e3 4a 3c ba 20 fa bc 1e bb 06 bd 04 2d 07 3d
       0.012383322 -0.030533183 -0.032893293 0.033001915
0001b0 35 03 b4 3c fe 92 5c bc 19 f4 7b bc 34 3b 7a bc
       0.021974185 -0.01346278 -0.015378022 -0.015272904
0001c0 ee 72 eb 3c 38 c2 0a 3c ab 5c e4 ba 76 b1 5e bb
       0.028741326 0.008469157 -0.0017422637 -0.0033980287
0001d0 e9 ae 11 3d a9 7e c4 bb b4 8b 0a bd 56 ac e6 3c
       0.035567198 -0.0059965444 -0.033824638 0.028158348
0001e0 05 e4 1b 3c 5c 16 56 bb cd 89 2c bd 9a 03 f4 bb
       0.009514813 -0.0032667136 -0.042123605 -0.0074467184
0001f0 a5 ad bf 3c 57 1b d3 3c 9a b9 69 3c 77 b4 98 3c
       0.02339823 0.025769873 0.014265442 0.01864074
000200 85 1d d5 3c 0c 60 13 3b 1e 1e 69 3c 9f 09 a3 3b
       0.026015053 0.0022487668 0.014228372 0.004975512
000210 d9 cc 0c 3b 60 a4 12 bd a7 22 dc bc 0c 35 94 bb
       0.0021484403 -0.03580129 -0.026871992 -0.0045229252
000220 21 93 c6 bb 60 b9 df bc f4 ca 11 bd e2 4b 94 3c
       -0.0060600196 -0.027310073 -0.03559394 0.01810259
000230 b4 a3 86 3c 0c a8 8f bc d0 cb 92 bc 4d 04 e9 bc
       0.016435482 -0.017536186 -0.017919451 -0.028444434
000240 b7 e0 ac 3b a1 c1 d0 3c 93 9a 6f bc dd b2 82 bb
       0.0052758115 0.025482954 -0.014624256 -0.0039886073
000250 9e d8 93 bc ad de 0d bd a8 fb 42 bd 52 c3 79 bc
       -0.018047627 -0.03463619 -0.04760328 -0.015244322
000260 88 42 c1 3c 3e 73 6c bc fc 70 4e 3a 8e 02 24 3d
       0.023591295 -0.014431773 0.00078751124 0.0400415
000270 5e 9b 67 3d c2 1e c0 3c 5a df af 3c 48 54 4f 3d
       0.056544654 0.023452166 0.021468807 0.050617486
000280 e2 ad 2e 3c de 43 86 3c 28 cb d1 3b 2f 83 90 3b
       0.010661574 0.016389783 0.006402392 0.0044101696
000290 d7 54 17 bd 58 33 45 bc 71 d1 2c bc ce be be 3c
       -0.036946144 -0.012036167 -0.010547982 0.023284342
0002a0 83 81 8d bc 48 83 be bb 99 fa 3d bc 46 cf d2 bc
       -0.01727367 -0.00581399 -0.011595392 -0.025733601
0002b0 bf 97 0d 3c 4f 30 f8 3c 96 59 06 bd 66 1a b2 3b
       0.008642136 0.030296473 -0.03280028 0.005435276
0002c0 ba c1 13 bd 02 35 26 bc e6 6f 49 bd b9 c8 52 3c
       -0.036073424 -0.010144474 -0.04917898 0.012865239
0002d0 66 1c 33 bc 77 f1 ec bb 8c 7c 1e 3d 28 44 7b 3c
       -0.010932064 -0.0072309333 0.038692996 0.015336074
0002e0 41 9a 8f 3d 21 0b 97 3d 9c e9 38 3d ab 16 8c 3b
       0.070118435 0.073751695 0.045144662 0.004275163
0002f0 06 03 34 3d 14 d8 7e bc d1 69 b9 bc 75 e8 2b bd
       0.043948196 -0.015554447 -0.022633465 -0.041969735
000300 06 21 41 bc f9 27 b0 bc fb e3 06 3d 49 60 67 bc
       -0.011787659 -0.021503435 0.032932263 -0.014122077
000310 d7 98 be 3c ea 5e fb bc e0 e4 97 3c 9d c6 e2 bc
       0.02326624 -0.030684907 0.018541753 -0.027682597
000320 6c ed bc bc 87 26 c2 3c fc 32 73 bc 83 0f d0 bc
       -0.02306243 0.023700012 -0.014843699 -0.025398022
000330 b4 56 4e 3b 69 3b f2 3b fc d0 8c 3b 17 70 b1 3b
       0.0031484785 0.007392336 0.004297374 0.0054149735
000340 9b b4 04 3c 5a cf 4c 3d f0 c7 23 3d 6c 04 8c 3d
       0.0080997 0.050002433 0.039985597 0.06836781
000350 a0 42 00 3d 5e 68 b9 3d 2e 7f 6b 3d 4b 35 f9 3c
       0.03131354 0.090531096 0.057494335 0.03042092
000360 79 08 39 3c 17 0b 03 3d f3 31 97 bc ce 11 38 bc
       0.011293524 0.031992998 -0.018456435 -0.011234714
000370 fe c8 36 bc 77 45 88 bc a3 8b 40 bc 60 8a 45 3c
       -0.011156319 -0.016634686 -0.011752042 0.012056917
000380 78 ff ba 3c b8 3a 06 bd cd b4 b2 bc d9 c3 85 39
       0.022826895 -0.032770842 -0.021814728 0.00025513655
000390 c2 8d c3 bc a7 c9 1e bd f4 1d fd bc 49 60 d2 bc
       -0.023871306 -0.03876653 -0.030898072 -0.025680678
0003a0 16 df 8e 3b d4 eb 30 bc 69 03 88 bb 32 0d 58 bc
       0.00436009 -0.010798413 -0.004150797 -0.01318674
0003b0 29 80 86 bc a5 0c 37 3d c2 20 31 3d 42 29 c1 3c
       -0.016418533 0.044689793 0.04324413 0.023579244
0003c0 c1 ac 2e 3d 28 c5 f6 3c 4d 7a 49 3d cd 89 2f 3d
       0.04264522 0.030123308 0.0491889 0.042856026
0003d0 24 9e 14 3d 63 06 94 3d 2a 4a 4d 3c 90 2f 0a 3d
       0.036283627 0.07227781 0.012529889 0.033736765
0003e0 a4 32 14 bc 8a 3a c0 3c 0c 40 fe 3b 7f 62 fd bc
       -0.009045277 0.023465414 0.0077591 -0.030930756
0003f0 2d 7d e3 bb c6 53 81 3c c6 fa 64 bc 7c dc 9b 3b
       -0.0069424124 0.015787017 -0.013975805 0.0047565084

linear.bias f4 [10]
000000 23 22 21 bd bd ec ce 3d 24 d8 cc bc c6 24 8e bc
       -0.039339196 0.10103748 -0.025005408 -0.01735152
000010 3d 3c 77 b8 2a 6a 8e 3c 21 01 8d 3c 2c 1a 85 3d
       -5.894549e-05 0.017384607 0.017212452 0.064991325
000020 f3 ee db bd b8 09 eb bc
       -0.10738935 -0.028691158
